checkpoint_actor.pth (torch_old, 541411 bytes, 6 tensors)

fc1.weight f4 [400, 33]
00000000: 4ad0 4abd 3cf6 d539 021a a8bd ba95 dd3d
00000010: 208c d0bc 0822 a13e dc1b bd3e 1909 93bd
00000020: 2972 fe3d 7b60 ecbb 81fb 75bc c383 a83d
00000030: a64c 3e3d 71a7 76bc 1cff bcbd 6984 8cba
00000040: 496f 1a3c 609f d1bc abfd 93bd 8b60 193e
00000050: 99cd c43c 48e3 97bc efa8 cdbc 2e4a 7b3d
00000060: d092 1f3d 7944 8b3d 288e 443e 93e7 ce3b
00000070: d4bd 28bd c3d1 abbc eac5 86bd d789 f0bc
00000080: af45 d33e 39c7 14bd ece5 8dbb dda8 fe3c
00000090: f38a 55bd 858a 09be 90e3 a1bd 9a4a 90bb
000000a0: 3a59 bb3d 79d8 57bd 625f e5bb 3cc2 a33c
000000b0: 16b3 13bd d9a2 0dbd 0fb8 a33b 6cab 523d
000000c0: 0edb 67bd 353d d73d 322e 6abd 0971 18be
000000d0: 9d54 7d3e fadd b0bc 8e33 d73d 97b6 22bb
000000e0: 57f2 cfbd e545 dbbd 90d1 98bd 9720 ed3d
000000f0: fc93 133c 9b75 263e 3560 3bbd 9423 363c
00000100: 4e2a 10bd 1f03 babe 6730 b2bd 97e2 c03d
00000110: 6663 91bd f703 0abe a914 a43d d8ad 32bc
00000120: 8517 60bd dfa1 95bc 4292 a43c 9804 a5ba
00000130: 4f16 ecbc ebac 22bd fca5 603b 530a 4fbe
00000140: fdf0 053d d335 1dbe d19d 303e 57d3 d5bd
00000150: ff95 963c 8aba ea3d 2c3f fcbb eec7 313b
00000160: e80e 8fbd 8a64 1dbd e8ae b0bd 9283 c1ba
00000170: d045 253d 8158 033e 5059 ba3d c3f1 c9bc
00000180: cea4 a7bd 49b0 053d 960b 943e 0994 8ebd
00000190: f79f a43d 1e3c 14bb e515 9b3c b768 0b3e
000001a0: ceec 1c3e 51f6 f43b 482a 65bd f48c aa3b
000001b0: ff3d 74bd d08f e0bc f9c7 653c fed9 01be
000001c0: 5df7 e03d 7c0a 213e 34f9 f0bd 63c0 94be
000001d0: 8ecb b5be 6244 413e bf54 4cbe 3532 49bd
000001e0: 69d0 ae3c ee6a 593d 4fae 32bc 5d36 e53b
000001f0: 2bd6 adbd be44 193d 2e4b 053c 208b 3c3e
00000200: d410 143c 7eb5 20bd a757 293d 7e15 d0be
00000210: c806 743c 9e7e 41bd 70e7 433d 009d f23c
00000220: 5fdb e2bc 7ec3 a43e 17fd 1d3e 6382 363d
00000230: 5f15 183e ec48 89bd e28a 9bbc b369 213e
00000240: ab23 b83c dbfc 113d 6fab 5dbc b6bf 5a3e
00000250: 6766 8a3c 896e 4cbe 086c 94bd 6d2d bebc
00000260: 045e c63d 96d7 813d d367 c63d fe75 a2bc
00000270: dc81 9c3d 9319 3e3d 8079 8c3c f8c5 8a3d
00000280: 7cf8 a2bd c371 a0bc 3d19 5b3c b276 c83c
00000290: da8b 853e 73a0 90bd 4d7c ec3d c4bd cd3b
000002a0: f4ae 90bd 4592 a23d d356 5a3b 4419 b3be
000002b0: 1164 86bd 7fc6 143e 225a 6dbd 0954 3dbd
000002c0: d33f b63d 771e b7bd 6e3a 953d e350 a23d
000002d0: a753 063c 6122 383e 2aef 43be 3cd6 3c3d
000002e0: 1f0c f43d 1cff ff3d 7f65 853d f4c0 8ebd
000002f0: d859 63bd bd35 e03d 44f2 e83c f5bb 83be
00000300: bb1e dd3d 8e38 913d 23ca 243d 37c0 debc
00000310: fd16 f9bc d944 823e 25f8 263d 3713 8a3e
00000320: a08a 613d 06d3 623d 436c 34be 99ec a03e
00000330: ab1b 503e abfc 8d3d 28ac 6b3c 4680 9b39
00000340: 761b eb3b 0ed8 4ebc aae6 52bd 1b77 21be
00000350: 39c4 c13c 8d01 aebb ed2c 5cbe 1ad0 313e
00000360: e7fa 55bd 33a6 8c3c af4c 9ebc 1ab8 95bd
00000370: 0bd0 143e bc4d d7bd 22a8 b93d f1ea cf3b
00000380: 0511 623c 49ad b33d 21c0 48be f3e5 1d3d
00000390: ce49 babc 74a5 743c 3af4 9cbe 4740 253d
000003a0: c628 f4bb b368 91bd 0fad 683c a733 c73e
000003b0: f041 893e d478 103d f26c ad3d 51fe d8bd
000003c0: 2817 5bbe c1af d1bc d7b4 f9b9 5603 4b3d
000003d0: 28a5 b73b e10e dbbd bc53 1d3d dba0 43be
000003e0: 7f33 8abe 727d 9f3e 0565 243e c1d8 12bd
000003f0: 31b2 df3b b5a3 173d bdde 8dbd 5281 9ebc
-0.049515046 0.00040809985 -0.082080856 0.10819574 -0.025457442 0.31471276 0.36935318 -0.071794696
0.12424118 -0.00721365 -0.0150135765 0.082282566 0.046459816 -0.01505457 -0.09228346 -0.0010720614
0.0094259465 -0.025588691 -0.07226118 0.14978234 0.024023818 -0.018540993 -0.025104968 0.06135004
0.03895837 0.068001695 0.19194853 0.006314227 -0.04119666 -0.020974046 -0.06580718 -0.029362602
0.41264102 -0.036322806 -0.0043303873 0.03108638 -0.052134465 -0.13431747 -0.07904732 -0.0044034244
0.09147878 -0.05269668 -0.006999896 0.01999008 -0.03605946 -0.03457913 0.0049963067 0.051433012
-0.05660539 0.10509721 -0.05717296 -0.1488687 0.24739309 -0.021590222 0.1050788 -0.002482807
-0.101536445 -0.10706691 -0.07461846 0.11578482 0.00900745 0.162558 -0.045746047 0.011116881
-0.035196595 -0.36330506 -0.08700638 0.094182186 -0.07099037 -0.13478075 0.08011753 -0.010905705
-0.05470993 -0.018265663 0.020089272 -0.001258987 -0.028819231 -0.03971569 0.0034278622 -0.20218782
0.032700527 -0.15352564 0.17247702 -0.104407005 0.01838207 0.11461361 -0.0076979604 0.0027127224
-0.06985265 -0.03842596 -0.08627111 -0.0014763942 0.04034978 0.1282673 0.09099066 -0.024651414
-0.08185731 0.03263882 0.2891509 -0.06961829 0.080383234 -0.002261884 0.018931339 0.13614164
0.15324709 0.0074756523 -0.055948526 0.005204791 -0.059629437 -0.027412325 0.014024728 -0.12680814
0.10984681 0.15726656 -0.11766282 -0.2905303 -0.35506862 0.18873742 -0.19954203 -0.049120147
0.021339612 0.05308049 -0.010905816 0.006995006 -0.08488115 0.037419073 0.0081356 0.18412447
0.009037215 -0.039235584 0.041343357 -0.40641397 0.014894195 -0.047239892 0.047828138 0.029615879
-0.027692495 0.321804 0.15428577 0.04455794 0.14851902 -0.06703362 -0.018987123 0.15762977
0.022477945 0.035641532 -0.0135296425 0.21362194 0.016894532 -0.19964041 -0.07247168 -0.02321502
0.09685901 0.06339948 0.09687772 -0.019831654 0.07641956 0.04641111 0.01714778 0.06776041
-0.07957551 -0.019585496 0.0133727165 0.02447066 0.2608326 -0.07061853 0.11547146 0.0062787253
-0.0706462 0.07938055 0.0033315911 -0.34980214 -0.06562055 0.14528845 -0.057947285 -0.04622272
0.08898892 -0.089413576 0.07286535 0.07925584 0.008198655 0.17981865 -0.19134203 0.046102747
0.119163744 0.1249983 0.065134995 -0.06970397 -0.055505604 0.1094775 0.028435834 -0.25729337
0.10796877 0.07090865 0.040231835 -0.027191265 -0.03040647 0.25443152 0.040763993 0.26967785
0.055063844 0.05537703 -0.17619424 0.3143051 0.20323054 0.06932958 0.014384307 0.00029659475
0.0071749045 -0.012624754 -0.05148951 -0.15768091 0.023653137 -0.0053102435 -0.21501513 0.1736454
-0.052241232 0.017169094 -0.019323675 -0.07310505 0.14532487 -0.105128735 0.09065272 0.006345146
0.013798003 0.08773286 -0.19604541 0.038549375 -0.022740271 0.014932025 -0.3065508 0.040344503
-0.0074511496 -0.07100048 0.014201417 0.38906595 0.2680812 0.03527148 0.08468045 -0.10595382
-0.21395552 -0.025596501 -0.00047627717 0.04956373 0.005604405 -0.10696197 0.038409933 -0.1910433
-0.26992413 0.31150395 0.16054161 -0.035851244 0.006826662 0.037021358 -0.069272496 -0.019348774

fc1.bias f4 [400]
00000000: 8de8 083e 5454 123e 5c30 92ba 4c6b 9e3d
00000010: ede2 913d 422e cb3d d0e5 a33d f435 73bc
00000020: d294 de3d b6f7 65bc 756d 263e 8485 993b
00000030: 1687 a7bd bdc1 b7be 1e7b 403e c989 663d
00000040: cf2f 9bbd 2fef 9ebd 0c7d 0a3d 8a7a 063e
00000050: 23c0 26be 5233 0b3e 727c 3e3e 1418 bbba
00000060: c74e 1aba 4621 99bd 1ca9 a33d f019 80bd
00000070: fda5 2abd 460c 1abe f169 6dbd 25ce 003e
00000080: 88a4 b43d 3589 483d 67f0 1a3e 17ad d3bd
00000090: 4129 63be 9b22 f5bc e829 623e 03b1 92bd
000000a0: 8fd9 42be 51aa 02be 4d9c f23d a84f b3bd
000000b0: b8fa 78bd bc0b 5ebd a8d9 6e3c e597 ba3d
000000c0: 37af 203d ee1e e4bd ed7d b5bd dc56 d23d
000000d0: 680e 1f3d ddb3 cfbd 0bad fcbd afca cb3d
000000e0: c0f6 c03d 6ecd 5e3e 30b7 01bd 33c6 093e
000000f0: b7de 5a3d be19 54bb 14b7 673d 682b c43d
00000100: dbf0 9abd 269b 363c 5c50 1abe 571a c5bc
00000110: 3c92 e1bd 09dc 0b3e 7e55 14be f185 46bd
00000120: 4f4c 2bbe c4f8 ff3c 9d88 233e 4b38 4fbe
00000130: 40de 243d 148f 16be 5869 25bd 343a 25bd
00000140: 316b 01be ef06 923d 4b37 c3bd 1261 aabc
00000150: f340 e0bd ebd5 2ebe c8fa 0e3e fdc7 053e
00000160: 078e b7bd 98c6 22be d349 3a3e 4ffa 523e
00000170: 2b07 373e 4a01 b0bd 1398 c0bd 471d b0bc
00000180: c55a 343e 1ccc d4bd a95e 2d3d 22c9 46be
00000190: c6e7 66bc 8e74 393e 991c 413c 36a3 203d
000001a0: 5c86 d43d 9ed1 bcbd d723 bd3d 41c9 aa3d
000001b0: fa12 9cbd 2dd2 b8be 4e49 a03d 6cdc c63d
000001c0: 4050 a13e f2ee 83be ffb4 63bc 1cc5 b0bd
000001d0: dbdf 00be f4ec aa3d 9757 1e3e 2180 d73d
000001e0: fb4e 6f3e 02cc 50be 8706 a63d 073d b33d
000001f0: fd0f e0bd 69e1 203e e831 4b3d 6dbc 3e3e
00000200: 2740 f4bd c365 493e 74b6 09bd 5fd1 d7bc
00000210: 20ee 173e 62b7 1cbe 67ab 98bd 77ea b3bd
00000220: b13a 41be 22b7 9dbd ebc9 22be 0dc5 2fbe
00000230: 5c54 72bc d9a2 093d 2828 16be e361 843d
00000240: dee9 0e3d 979a 10be e008 7b3d 3e91 063e
00000250: 72a5 f5bd 9549 493e 1f63 aabd 92ac a13c
00000260: 8bd9 483d da2b 0cbd e85a 07be 0fe0 163d
00000270: 685b bfbd 0fc4 adbd e945 12bd 05e6 c13d
00000280: 583d 6b3e 1714 933d 84a8 1c3c 8cbf 5bbe
00000290: 6227 223d 7029 62be cbb2 073d 2988 05bd
000002a0: 71ba 85bd 240a 9b3d be34 ff3d 0979 953d
000002b0: 2d51 2a3c 189d 88be 32b2 563e a499 31be
000002c0: 4a5b 3abe 30df 333d 64dd 6e3c e9c6 6e3c
000002d0: a5be b3bd 919a 17be 55ab db3d 537f 0a3e
000002e0: 5352 eabd dddc 72be fc86 e53d cec5 13be
000002f0: ffcc 59bd 8908 99bd 0df2 8d3d 1aad c4bd
00000300: fbd8 80bc dd93 7ebd 9c3d 07bd 9890 e2bd
00000310: 98e0 05be fa9d 8dbd e5b7 99bd c17c 823c
00000320: 87e9 dbbc c215 623d 6f54 1c3a d8fe 9e3c
00000330: 7e5b d03c a3d2 20bd eb8b 9ebd 7d96 0bbc
00000340: 3f88 733c b7de a4bd 042d 7cbd a940 8dbd
00000350: c48e 48bd 18e7 2f3d afbd 8fbd 237a b0bd
00000360: 0017 33bc 1994 67bd 1294 09be d582 523e
00000370: 4c64 c93d af18 2bbe 560b 193e 5a2e dabd
00000380: 7e4c e6bd 6652 003d bc3e 103e 185d 6bbe
00000390: 9672 d9bd 9eeb 83bd ed81 30be 8df6 f0bd
000003a0: bf50 18be 32a7 1d3e 819e 433e a083 e93c
000003b0: a666 833d 1784 11be 1735 0abe 7e9e fd3c
000003c0: 631d 413d e1dd aabd d764 b73d 82a8 d33c
000003d0: 905f 2f3e 4a85 9dbd b941 ba3d a088 9cbc
000003e0: ba6e 1f3d 1d48 bebd 989c 423d cfb7 99bc
000003f0: d8ff b53d b516 113d 7477 babd a1e4 1d3e
0.13369961 0.14289981 -0.0011153328 0.07735309 0.07123361 0.09920932 0.08002818 -0.014844406
0.10868229 -0.01403611 0.16252692 0.0046851058 -0.081800625 -0.35889998 0.18796965 0.056283746
-0.07577478 -0.077604644 0.03381066 0.13132682 -0.16284232 0.13593796 0.1860216 -0.0014274144
-0.00058863725 -0.074770495 0.079912394 -0.06254947 -0.041662205 -0.15043744 -0.05796236 0.12578638
0.08820444 0.048958976 0.15130769 -0.10335749 -0.22183706 -0.029923728 0.22086298 -0.071626686
-0.19028305 -0.12760283 0.11846218 -0.087554276 -0.06078598 -0.05421041 0.0145782605 0.09111003
0.039229598 -0.11138712 -0.08861909 0.10270473 0.0388321 -0.10141728 -0.12337693 0.09950768
0.09422064 0.21758053 -0.03166884 0.13454513 0.053435054 -0.0032363976 0.05657108 0.095785916
-0.07565471 0.011145389 -0.15069717 -0.024060411 -0.1101422 0.13658156 -0.14485738 -0.04846758
-0.16728328 0.03124655 0.15970083 -0.20236318 0.040251017 -0.14703017 -0.040383667 -0.04033871
-0.12638547 0.07130229 -0.09532031 -0.02079824 -0.10949888 -0.1707379 0.13962853 0.1306457
-0.089626364 -0.1589607 0.18192224 0.20603298 0.17873828 -0.08593996 -0.09404006 -0.021498336
0.17612751 -0.10390493 0.042326603 -0.19412664 -0.014093345 0.18110868 0.011786603 0.03921815
0.103771895 -0.09219669 0.092353515 0.083391674 -0.07620807 -0.3609785 0.07826482 0.09710011
0.31506538 -0.25768238 -0.013898133 -0.08631346 -0.12585394 0.083459765 0.154631 0.105224855
0.23369972 -0.20390323 0.08106714 0.087518744 -0.109405495 0.15710987 0.04960814 0.18626566
-0.119262986 0.19667725 -0.033621266 -0.026344953 0.14836931 -0.1530433 -0.074545674 -0.08784955
-0.18870045 -0.077009454 -0.15897338 -0.17165013 -0.014790621 0.03360257 -0.14663756 0.06463983
0.034891002 -0.14121471 0.06128776 0.13141343 -0.11994447 0.19656976 -0.08319687 0.019735608
0.04903559 -0.034221508 -0.13218272 0.036834773 -0.09343606 -0.08484661 -0.035711203 0.09467701
0.2297262 0.07181566 0.009561662 -0.21459788 0.03958834 -0.2208612 0.033129495 -0.032600556
-0.065297015 0.075702935 0.12461232 0.07298476 0.01039533 -0.26682353 0.20966414 -0.17343765
-0.18198887 0.04391402 0.014579151 0.014573791 -0.08776597 -0.14805056 0.10726038 0.13525133
-0.11441483 -0.23717065 0.11207387 -0.14430925 -0.053174015 -0.07472331 0.06930933 -0.09603329
-0.015728464 -0.062152732 -0.03301774 -0.11062735 -0.13073957 -0.06914897 -0.07505778 0.015928628
-0.026844753 0.05519653 0.00059635093 0.019408628 0.025434252 -0.03926338 -0.07741531 -0.008519766
0.014864027 -0.08050292 -0.061566368 -0.068970986 -0.048964277 0.042944998 -0.07018601 -0.08617046
-0.010930777 -0.05653772 -0.1343539 0.20557721 0.09833583 -0.16708635 0.1494573 -0.10653372
-0.112450585 0.03132858 0.14086431 -0.22984731 -0.10617559 -0.06441425 -0.17237063 -0.11765776
-0.14874552 0.15395811 0.19103433 0.028505147 0.06416063 -0.14210545 -0.13496815 0.030959364
0.047147166 -0.08343101 0.089547805 0.025837187 0.17126298 -0.076914385 0.09094567 -0.019108117
0.038923956 -0.09291098 0.04751262 -0.018764405 0.08886689 0.035422046 -0.09104815 0.15419246

fc2.weight f4 [300, 400]
00000000: eb8b 1abd 9652 bebc 301b c43d 0c8e d2bc
00000010: cac2 8ebd b522 70bb 6617 823d bb0d 21bb
00000020: 02db 063e 8e99 e2bd fa84 923d 88b4 e73d
00000030: 0a45 d13d 3627 ff3c caf2 a53c 7af4 a33d
00000040: 9900 c3bd 5510 45be 0a2b 2b3c 868e 81b9
00000050: ba1b 0b3e 7a74 cabd b6b2 833e c8de 4fbe
00000060: d393 f63c 6749 9d3d 7966 2a3d 413f 7ebd
00000070: 0a5e 0dbd 9141 a83d aac0 5f3d 7a1e d4bd
00000080: bba9 4b3e 20b0 943c 44e3 89bc 4c82 05bc
00000090: 9a1d ecbd 893c ac3d 7bad 40be 0cc0 8b3d
000000a0: 8223 4e3e 7ac5 adbe f2ac 1f3e 054b c73d
000000b0: 81de c4bc 246b 41be 5c19 583d cd98 e2bc
000000c0: 5c87 8c3e 253c 78bd da6f 0cbd 5166 cd3c
000000d0: c65b ffbb b9ff af3a 3222 1bbd 5525 ec3c
000000e0: 0509 0fbe a47d 88bd e7db 5dbd 735e 48bd
000000f0: 0772 f13c b24d 5c3c 5916 cebd 235a f93d
00000100: 85b4 873d 0bea ddbd e081 3fbe ebbf 3abd
00000110: e819 2f3e 3391 f6bd 709e 77bd d26d 9ebb
00000120: 7c49 83bc 55a0 99be 389d 6c3d 1a97 06bc
00000130: 0a5a 783d 6205 3dbe 7d17 6f3d b021 aebd
00000140: 37fa 563b c70a abbd a7cb f13d 624c 0ebe
00000150: d2fc 9d3d 75cf 8cbd c636 a3bd 069e 1dbe
00000160: 695f 933c 4c71 c43c 348f 8e3d 4879 d1bc
00000170: e4ea 263d c006 163e aa23 ecbc 11b0 0cbe
00000180: 338e c7be 24a6 0dbe fa1a 0c3e 8158 90bd
00000190: 0bba b9bc 738d b93d 7c94 b5bb 79c3 0abc
000001a0: d769 f539 334c 03bb 681f a13c 9c54 c5bd
000001b0: c833 9b3d 3ed6 843d fcec be3b 25b4 433e
000001c0: 7f36 87bc 3823 b03d 49bd 25bb 7cde ba3c
000001d0: 8bc1 95bd e9c3 273c 6e27 733c 46fa 9ebc
000001e0: 1f9f 1a3e e91a 07bd 90e3 ce3d 5471 e53c
000001f0: 61c7 5bbe e4cf d63d 9cff 21be b683 09bc
00000200: f2ba 86bd e786 023e 9b85 d73d 5b0d 57bd
00000210: 7e4a cbbd 8cec e7bd 0f89 a23d 59cf adbd
00000220: 779f 01be 5dbc 813d ebcd 1e3d 1f4a 2ebd
00000230: d18d c53d 2580 923e df3d fcbd 9a17 d5bd
00000240: e5a0 3ebd a3e1 5abd d1b6 06be 3d19 73be
00000250: fe59 0a3c 97b9 e2bd 8b19 3abd 454b 9b3b
00000260: 3478 ccbd 11ad 4abd 659d 22be 4b90 7abe
00000270: 3cca afbc b936 d33d dab2 203c 1658 683d
00000280: 4220 5c3d f210 c93d b238 073e e398 9abd
00000290: 14b0 2c3d 577f ac3d 5136 c43d ecbd 9639
000002a0: e901 783e 0205 e4bb 4f4e 81bc e185 f0bd
000002b0: db35 3ebc dc4b 4b3d 5de1 133e 8394 9c3d
000002c0: 3bf5 e3bd f6e2 e63d 0f85 13bc 6acb 11be
000002d0: 6191 6cbd c80d 27be d719 a3be c637 83bd
000002e0: 66df 153d cf91 c53d 6f64 fabc ad0e 583d
000002f0: 15e3 823d 67e7 2e3e 477d 86bd d5ec ffbd
00000300: 392c 543e 717c c6be eb6b 2f3e 7833 9a3b
00000310: 9d33 de3d d5aa 3c3d 0267 a8bd adf3 aabe
00000320: cd30 34bd 1ba3 09be e97d 803d 5468 a13d
00000330: 38de ba3d 87f2 8abb 0d97 54bd 2ca9 5a3e
00000340: fb6d afbc 97c2 da3d 50fc 6bbc a2cf 3abb
00000350: 9a62 75be ca62 c03d 2056 0fbc d202 e4bd
00000360: 1530 35be 2c1b ebbd 03e1 c13d 769d 253c
00000370: 7212 933d 31db 833d 4b2c be3d bf6d 853b
00000380: 638c 37be 0b99 bb3b 9329 82bd fbbf 5bbe
00000390: 4848 8d3d fb16 efbd 24f0 0d3d 7c81 2dbe
000003a0: 4195 dcbd df26 793c db06 53be bfe0 f63d
000003b0: f97d 193e b458 bebd feeb 92be 14d8 8ebe
000003c0: 4fee 3bbe c236 c03c e2fc fdbd ea48 063c
000003d0: 269f ddbd e9f5 533e d924 e6ba 4a94 0a3e
000003e0: 5cd2 82be 9a65 d13d 8f52 ae3c bb57 293e
000003f0: 20a0 5f3e 07ae a4be d58c bc3c 70e4 973d
-0.037731092 -0.02323274 0.09575498 -0.025702499 -0.06970747 -0.003664178 0.06352119 -0.0024574834
0.13169482 -0.110644445 0.071542695 0.113137305 0.10218246 0.031146627 0.020257372 0.080056146
-0.09521598 -0.19244511 0.010447273 -0.00024710986 0.13584796 -0.098854974 0.25722283 -0.20299828
0.030099785 0.07680016 0.04160163 -0.062072042 -0.03451351 0.08215631 0.0546271 -0.103573754
0.19888966 0.01815039 -0.016832002 -0.008148741 -0.115290835 0.08409984 -0.18816178 0.068237394
0.20130733 -0.33939725 0.15593317 0.09731106 -0.02403188 -0.18888527 0.05275856 -0.027660752
0.2744702 -0.060604233 -0.034286357 0.025073202 -0.0077929227 0.0013427652 -0.037874408 0.028826395
-0.13968284 -0.06664589 -0.054164793 -0.0489182 0.029473318 0.013446258 -0.10062856 0.12175395
0.06626228 -0.10835656 -0.18701887 -0.045593183 0.17099726 -0.12039413 -0.060453832 -0.004834869
-0.016026251 -0.30005136 0.057767123 -0.008214736 0.060632743 -0.18459085 0.05837201 -0.08502519
0.0032802948 -0.08351665 0.11806422 -0.13896325 0.07714237 -0.06875507 -0.079694316 -0.15392312
0.017989831 0.023979805 0.069609076 -0.025570527 0.040751353 0.14651012 -0.0288256 -0.13739039
-0.38975677 -0.13832909 0.13682166 -0.07048131 -0.02267172 0.090601824 -0.0055413824 -0.008469456
0.00046808898 -0.0020034432 0.019668296 -0.096352786 0.07578236 0.06486176 0.0058265906 0.19111688
-0.016505478 0.086004674 -0.0025289825 0.022811167 -0.07312306 0.01023958 0.014840944 -0.019406449
0.15099762 -0.032984648 0.10101998 0.02800814 -0.21462776 0.10488871 -0.15820163 -0.008393219
-0.06578626 0.12746774 0.1052353 -0.05250297 -0.09926318 -0.113244146 0.07936298 -0.08486814
-0.12658487 0.063347556 0.038770597 -0.042551156 0.0964619 0.28613392 -0.123164885 -0.10404892
-0.04654016 -0.05343784 -0.13155676 -0.23740096 0.008444307 -0.11070555 -0.045434516 0.0047391974
-0.099838644 -0.049481455 -0.15880354 -0.24469106 -0.021458738 0.10313172 0.009808267 0.05672463
0.0537417 0.09817685 0.13205221 -0.07548692 0.04216011 0.08422726 0.095806725 0.00028751732
0.24219479 -0.006958605 -0.01578441 -0.117442854 -0.01160952 0.049632892 0.14441438 0.07645514
-0.111307584 0.11273758 -0.009003892 -0.14237753 -0.05775583 -0.16313851 -0.31855652 -0.06407122
0.036590002 0.096469514 -0.030565469 0.05274837 0.06390969 0.1708046 -0.065668635 -0.12496344
0.20719995 -0.38766816 0.17131011 0.0047058426 0.10849688 0.046061356 -0.08222772 -0.33389035
-0.043991853 -0.13441126 0.062740155 0.07881227 0.09124416 -0.0042403373 -0.051901866 0.21353596
-0.021414747 0.10681646 -0.014403418 -0.0028505106 -0.23963395 0.093938425 -0.008748561 -0.111333504
-0.17694123 -0.11479792 0.09466746 0.010108342 0.071812525 0.06438292 0.09285792 0.0040719206
-0.17924647 0.0057250313 -0.06355586 -0.21459953 0.06898552 -0.11674305 0.034652844 -0.16943926
-0.107706554 0.0152070215 -0.20608084 0.12054586 0.14989461 -0.092942625 -0.28695673 -0.2789923
-0.18352626 0.02346361 -0.12401749 0.008196095 -0.10821371 0.20699276 -0.0017558589 0.1353313
-0.25551116 0.10224457 0.021279601 0.16537373 0.21838427 -0.32164022 0.023016373 0.07416618

fc2.bias f4 [300]
00000000: 3ba0 8bbb a7d9 833c 553a 183d d742 16bb
00000010: a4aa 763d e10f 803c af82 453c f48f 70bd
00000020: 3c63 88bd 947f b0bc 89e2 d2bd 0d66 013d
00000030: 5f2b 2c3c 074d f13c b241 59bd 79f4 4d3d
00000040: 471b af3c ae9d 6bbd 280f 033d a866 84bd
00000050: 9241 953d 6760 e6bc bf05 2fbd 72cc c63d
00000060: 960b be3c 9428 463d 4878 1e3c 70b4 533c
00000070: 3ed4 a43a 5335 5cbc 7de3 1b3d 25aa 053d
00000080: 845d 763d 9a54 c53b 0008 08bc 5ce9 a6bc
00000090: f3cd 9b3d 209f 243c 76f6 86bc fb4f fabb
000000a0: da62 3cbc 1245 0b3d 9455 b0bb c9bc 56bb
000000b0: 8651 653d b27d 0c3d 1d0e 893d 6f37 7dbd
000000c0: daf8 d83b 7d5e 70bd fafb d43c 1fd9 ebbc
000000d0: 6ba2 62bd d4d8 963c 6242 863d fa22 123c
000000e0: 679e 86ba 4ffd ecbc 02bb 3c3d 6893 debc
000000f0: 47a7 833c 523e 0c3d 7988 4d3a 6b7b af3d
00000100: a4f2 893d cd4a ff3c 3868 6a3d cf32 803d
00000110: b8df d0bc f234 14bc 1bd2 873d 7562 283c
00000120: 8b4c 17bd 7cf2 a33d 3279 a0bc 89c8 30bd
00000130: 9b4f 543c 8e60 bf3b 424b 383c e5a2 debd
00000140: 1b93 623d 0369 d4bb b0d4 343d 37be 333c
00000150: aad4 1f3d 5627 2b3d 7f06 e83c b441 2c3d
00000160: 60c8 61bd dbf4 20bc 444c e73c ecf1 c03c
00000170: 46a4 6e3d 28ce 9dbd 1e8e b63c 5e88 23bd
00000180: a53f 1a3d 9283 98bd 53fc c13c 7ba1 4c3d
00000190: b3a8 b2bd 023b 8e3d 66d1 f73c 49c6 113d
000001a0: d6cb 8cbb 9ed0 723d 4e93 c4bc a988 1e3d
000001b0: 54c3 14bd c0f3 4c3d 1c20 833d 3abe 8dbd
000001c0: 7b95 3c3d 73ce 043d 7b95 8fbc 39b8 303d
000001d0: 6f0e 183d aad3 3abc e3c6 54bc 8da3 8e3c
000001e0: 9f4c 83b8 3b02 a23d 6dd0 59bd a769 cf3c
000001f0: 463b 8f3d 461b 943c 2051 32bd 4c04 49bd
00000200: 9a70 c93c 66c0 b3bc 8f2a adbd 1ec6 513d
00000210: ed71 12bd ff5f 193d f9fc adbd 431f c9bd
00000220: 2ff3 713c 68d6 42bd 9e00 f33d d139 a4bc
00000230: 4fbd 203d 0434 283d e503 203b 5a9c 7fbc
00000240: 1d42 003e b801 fc3a 7bfa 233d b619 a3bd
00000250: e3f6 9f3d 2fd7 24bc 2c14 c2bc b48a cbbb
00000260: ee31 473d e6c1 cb3d 1be9 0ebd 74b2 8fbc
00000270: 474c 6c3d dc85 d9bc 6aa1 5f3d f722 eb3c
00000280: 8b80 43bd d5c7 a0bd e265 893d e3d1 953d
00000290: f077 3cbd 578e e3bc 4e17 31bc 161e 913c
000002a0: ed58 acbc 2ae5 083d e0aa 28bc f308 15bd
000002b0: a56f 2bba aa9f 6dbd cf0f bdbc 1c2e c9bd
000002c0: 8a94 0ebd 2dfe 00bd 3ddc 92bd 6380 c03c
000002d0: 6f8a d43c cc6b 913d 85bb 9bbd dce4 b7bc
000002e0: 775f f93d e527 cdbc 13aa 87bc a2a5 483d
000002f0: 81ff 9d3d 9acd 083d b84b 6f3c f3f3 383d
00000300: 42e7 23bc 9e3d 88bc ac34 88bc bfb3 d93c
00000310: bfea dcbd 2515 923c 16dc 28bd 5595 4cbd
00000320: ea5a 043c c5ba 2abd c4b8 17bd 418a 903b
00000330: 60b6 19bd 9af4 753d 9b47 8b3d d7a4 553c
00000340: 5126 3a3d 7fdc dc3c 60d5 6d3d fd91 59bc
00000350: 24a4 08bd cdc9 223d 7fe2 93bc bac6 f13c
00000360: d077 953d dabe efbc a5c1 9e3d 0500 28ba
00000370: 42e4 7bbc 4930 ebbc edb3 783c 99ba f5bb
00000380: 3cd7 35bd 192f 493d ff34 793d 0c98 1dbd
00000390: 6e21 a53d 8ff1 103d 2897 4dbc 25f7 c0bc
000003a0: 35e1 013d e4a9 e2bc e919 123d 3344 63bd
000003b0: 2ab9 d53c 09c3 003d 13b6 98bd 2f23 36bb
000003c0: 9374 07bd e1bd 3c3d c475 a33c 0852 e7bc
000003d0: 4739 843d 3716 a2bd 640a c93c c28c 263d
000003e0: e9ad c3bc 68cb 3ebb 9f16 d0b9 7108 0d3d
000003f0: 8993 933b 015a 13be 8546 303d 3884 ba3c
-0.0042610443 0.016094996 0.037165005 -0.0022928023 0.06022133 0.015632572 0.012055083 -0.058731034
-0.066595525 -0.021545209 -0.102971144 0.031591464 0.010508387 0.029455675 -0.053041168 0.050281975
0.021375312 -0.057523422 0.031996876 -0.064648926 0.07287897 -0.02812214 -0.04273009 0.097069636
0.023198884 0.048378542 0.009672232 0.012921438 0.001257546 -0.013440448 0.038058747 0.032632966
0.060147777 0.006022048 -0.008302689 -0.020374946 0.07607641 0.010047704 -0.016474944 -0.007638929
-0.011498177 0.034001417 -0.0053812955 -0.0032766333 0.05598595 0.03429956 0.06692145 -0.061820444
0.0066214623 -0.05868386 0.025999058 -0.028790055 -0.055330675 0.018413939 0.0655563 0.008919472
-0.0010270596 -0.02892938 0.046076782 -0.027169898 0.016070975 0.03423912 0.00078404654 0.08568462
0.06735733 0.031163597 0.057228297 0.06259691 -0.025497302 -0.009045826 0.06631871 0.01027738
-0.03693823 0.080052346 -0.01958904 -0.043159995 0.012958433 0.0058403676 0.011248412 -0.108709134
0.055316072 -0.006482245 0.044148147 0.010970644 0.03902117 0.04178556 0.02832341 0.042054847
-0.055122733 -0.009824003 0.028234608 0.023552857 0.058262132 -0.07705337 0.022284564 -0.03992497
0.037658352 -0.0744697 0.023679888 0.049958687 -0.08723583 0.069448486 0.030251216 0.03558949
-0.00429676 0.059280984 -0.023996022 0.038704548 -0.036319092 0.050037146 0.06402609 -0.069210485
0.046040993 0.032423448 -0.017527333 0.04314444 0.03712314 -0.011403004 -0.012986871 0.017411971
-6.2608386e-05 0.07910582 -0.053177286 0.025318934 0.069937274 0.018079411 -0.043534398 -0.049076363
0.024589825 -0.021942329 -0.08455383 0.05121433 -0.03575318 0.037445065 -0.08495516 -0.09820416
0.014767452 -0.047567755 0.11865352 -0.0200471 0.03924304 0.04106523 0.0024416384 -0.015601242
0.1252522 0.0019226586 0.0400338 -0.07963888 0.07810762 -0.010061069 -0.02369126 -0.006211603
0.0486316 0.099490926 -0.034890275 -0.017541148 0.05768993 -0.026553087 0.054597296 0.028703196
-0.04773001 -0.07850615 0.06708886 0.07315423 -0.04601282 -0.027777834 -0.010808779 0.017714541
-0.021038497 0.033421673 -0.010294646 -0.036385488 -0.00065397687 -0.058013596 -0.023078827 -0.09823248
-0.034809627 -0.0314924 -0.07170913 0.02349872 0.025944917 0.07100639 -0.07604126 -0.022447996
0.121764116 -0.025043437 -0.01656059 0.048986085 0.07714749 0.033399202 0.014605455 0.045154523
-0.010003867 -0.016630944 -0.016626678 0.026574967 -0.10786962 0.017832348 -0.041225515 -0.0499471
0.008078316 -0.041682024 -0.03704144 0.0044110124 -0.037527442 0.060047723 0.06800767 0.013039789
0.045446698 0.02696061 0.05806482 -0.013279435 -0.03335966 0.039743233 -0.018052338 0.029513706
0.07298243 -0.02926581 0.077517785 -0.00064086943 -0.015374245 -0.028709548 0.015179616 -0.007499051
-0.044394717 0.04911718 0.060841557 -0.03847508 0.08063017 0.03538662 -0.0125482455 -0.023555348
0.031708915 -0.0276689 0.03566924 -0.05548496 0.02608927 0.031436 -0.07456603 -0.0027791967
-0.03307016 0.04607952 0.019953616 -0.028237358 0.06456237 -0.079143934 0.024541087 0.04066158
-0.023886638 -0.0029112939 -0.00039689706 0.03443188 0.0045036715 -0.14389803 0.043036003 0.022768125

fc3.weight f4 [4, 300]
00000000: 402e 973d 15aa 75bd d7a4 7dbc 126d 543e
00000010: 01bd 913d ed2d af3e b898 433e cc53 10bf
00000020: 4339 a13e d980 a73d 69be 233e 02ca 55be
00000030: bb0f aabe 7738 983e d094 9f3d ac53 cd3c
00000040: bcbe 493e 9b80 a13c 9fc1 473e 25da ed3e
00000050: e1a8 58be ec7e b53e 6442 a3bd af33 c9bd
00000060: c39a 1a3f 2a3f 803e 6fff cc3e 7fa2 5dbe
00000070: 3a41 523e 0bf0 e1bd 6bff bb3e 9a2d d53d
00000080: 40ac 4fbc 4903 b63c 3215 e03e 55b5 35be
00000090: 056c eebd 5fa2 d7bd 40f3 e73e 555b dcbc
000000a0: 5b25 503e b412 90be 879f 2fbc 1641 f0bc
000000b0: c6ae 85be a996 55be c17c 2e3e 2ab0 97bc
000000c0: fafe 5cbe b62f dabd 154f b7be 8b50 c5bd
000000d0: 3c8b ea3e 9887 8dbe f20d 0b3f 635e d73e
000000e0: 8e62 f43d 6da1 44be ce9c 963c 9328 7cbd
000000f0: 5fe3 67be 9aa5 e83e 1787 63be d0ec e5bd
00000100: 662e 64be 6f44 de3e 1316 aa3e 273a 603e
00000110: ca43 d63e 2fc5 e4bc 289c a43e a853 dbbd
00000120: db6a 95be c624 593e 5242 1ebe 4f35 41bc
00000130: 94a0 babd 15d2 423e 1a40 7cbd c2c4 493e
00000140: cc37 4f3e aff6 f33c e1da 8abd 76b5 c6bd
00000150: 814e 823e d50a bd3d 6aef 3f3e 1086 b6bc
00000160: f6b9 1abd 3049 2bbe a547 f73e d814 b33d
00000170: 8785 f03e bfc9 093e 80f8 05bd 8b36 193e
00000180: e486 0b3f 2722 163f ecfc 01be 2182 49be
00000190: 283b 5c3e 2455 35be a427 09bd b0e2 0ebe
000001a0: 2118 263d d115 01be 517a 273f c4ec ebbd
000001b0: 6166 acbd 44a1 47be 85c3 83be 2d32 163e
000001c0: 3642 40be cc1b 2bbe 3a64 063f 8eb7 b93e
000001d0: 95d1 56be a5f3 4d3d 6b04 43be 15ff d43e
000001e0: ef80 fd3d 4100 ea3d fbf2 b33d 8092 b43e
000001f0: 3917 27be dbe8 0cb9 27d0 b63e 2060 de3e
00000200: da94 8abd 92e3 b1bd e617 e23e 06d1 a3bc
00000210: a7d5 8fbe e33b 51bd 037a 0fbe 960e 073d
00000220: aa43 c53e bfcd 9c3d deda 2ebe f7fb 25be
00000230: bd7c 9dbd d5cf f23d c39c 743e 6f60 86bc
00000240: 633f 93be fbab 01be 2d99 fcbd 4b7b c23e
00000250: d16b 8d3e da24 3dbd f340 adbe 708f 71be
00000260: 0494 45be 1b36 c7bd e3e8 963e b63b 693e
00000270: 9324 833e c96c 4ebe 0c42 55be 965d 683d
00000280: c0c3 c83e 96ae 29be 0ffd 5ebe 26b1 37be
00000290: 5750 2b3e ea4e 923c 3dd2 91be 325c afbd
000002a0: 5e34 033f 8b6e 60be 7df7 56bd a2b0 cbbe
000002b0: 06e3 d33e 8e02 073d af17 dabe 8947 8d3e
000002c0: c3ec aa3e 4222 463e 4dcd b73b 73ec 16be
000002d0: aeff e33d 52c1 843e 2bd0 903e d098 9d3e
000002e0: b985 26be 571e 263e 8548 c03e 683f 97be
000002f0: 5fb7 02be d003 64bc 95b0 71bd c09b 533e
00000300: 6f15 23bd 0d44 d3be 3f1b acbd f3a3 eebd
00000310: 1ba0 2e3f 70eb 933e 685b f23e 0bb4 8b3d
00000320: 55b1 363e 3721 dd3c cd59 c5bd 10d3 84be
00000330: 042c 23be 8b64 a0bd 36e0 bf3d 42d6 debd
00000340: 144d 8bbd 73db 86bd 9017 0e3f 6e92 ddbd
00000350: ccf3 68bd 8b6c 1abe 2059 a2be d336 5c3e
00000360: 8eb3 bbbe 0899 76be 958c 94bc f33f 9ebe
00000370: 0690 29be 3c0d 10bd a469 a2bd 3906 ee3e
00000380: bbe5 153f 7ca7 823a 6c78 0dbe c356 8cbd
00000390: 75f4 1c3d 543d 4cbe 5a02 dfbd 4f30 dc3d
000003a0: 4067 3f3f ad11 cebd 8bae 64be 8db1 fabd
000003b0: a75a 7fbe d695 da3e f7ec 21bd 36d0 9ebc
000003c0: 2cab 95be c779 893e 9417 223e 5d1f 2b3e
000003d0: 761e 9fbe 38d9 7a3e c924 5dbe 310d 81be
000003e0: a71e 20bd a3d3 1e3e 2e0d 35be ebdd e83d
000003f0: 1b2a 01be af24 e43e dd2e 60bd b1b0 b0be
0.07381868 -0.059976656 -0.015481195 0.20744732 0.07116128 0.34214726 0.19101226 -0.56377864
0.31489 0.081788726 0.15990604 -0.20877841 -0.33215126 0.2973058 0.077920556 0.025064312
0.19701666 0.019714644 0.19507454 0.46455494 -0.21158172 0.35448396 -0.079716474 -0.09824311
0.603924 0.2504819 0.4003863 -0.21644019 0.20532694 -0.11032113 0.36718306 0.104090884
-0.012675345 0.022218363 0.4376617 -0.17744954 -0.11641697 -0.10529017 0.45302773 -0.02689902
0.2032675 -0.2813927 -0.010719187 -0.02932791 -0.26109904 -0.20858254 0.17039777 -0.018516619
-0.21581641 -0.106536314 -0.35802522 -0.09634503 0.45809352 -0.27642512 0.54318154 0.420642
0.1193286 -0.19202204 0.018385317 -0.061562132 -0.22645329 0.45438844 -0.22219501 -0.11226809
-0.22283325 0.43411586 0.33219966 0.21897183 0.41848594 -0.027926056 0.32150388 -0.107093155
-0.29183087 0.21205434 -0.15454987 -0.011792495 -0.09112659 0.19025452 -0.06158457 0.19703963
0.20236129 0.029780714 -0.06780029 -0.0970258 0.2545052 0.09230582 0.18743673 -0.022280723
-0.037775002 -0.16727138 0.48296848 0.0874421 0.46976873 0.13455866 -0.03270769 0.14962213
0.545027 0.5864586 -0.12694138 -0.19678546 0.21506941 -0.1770826 -0.03348507 -0.13953662
0.040550355 -0.12605979 0.65421015 -0.11519769 -0.08417965 -0.19495112 -0.25735107 0.14667578
-0.18775257 -0.16709822 0.52496684 0.36272854 -0.20978387 0.050281186 -0.19044654 0.41600862
0.12378108 0.1142583 0.08786579 0.3526802 -0.16317452 -0.00013438186 0.35705683 0.43432713
-0.067666724 -0.08685984 0.44158858 -0.019997131 -0.2809269 -0.051082503 -0.14011388 0.032972895
0.38528186 0.076564305 -0.17075679 -0.16209398 -0.076898076 0.11856047 0.23887925 -0.016403405
-0.28759298 -0.12663262 -0.123339035 0.3798469 0.2762132 -0.046177723 -0.33838615 -0.23589873
-0.19294745 -0.09727117 0.29474553 0.22776684 0.2561384 -0.20158686 -0.20825976 0.056729876
0.39211845 -0.16570505 -0.21776222 -0.1793867 0.16729866 0.017859895 -0.28480712 -0.08562507
0.5125178 -0.21917169 -0.052482117 -0.39783198 0.41384143 0.03296142 -0.42596194 0.2759364
0.3338376 0.19349006 0.0056091906 -0.14738636 0.111327514 0.25928742 0.2828382 0.3078065
-0.16261949 0.16222511 0.37555328 -0.29540563 -0.12765263 -0.013916925 -0.059006292 0.20664883
-0.039815363 -0.41262856 -0.08403634 -0.116523646 0.6821305 0.28890562 0.47335362 0.0682145
0.17841084 0.026993377 -0.09636269 -0.25942278 -0.1593476 -0.07831677 0.09368937 -0.1088071
-0.06801811 -0.06584825 0.55504704 -0.10818945 -0.056873128 -0.15080468 -0.31708622 0.21505289
-0.36660427 -0.24081814 -0.018133441 -0.30908164 -0.16558847 -0.03516887 -0.079303056 0.46489123
0.58553666 0.0009968127 -0.13815469 -0.06852486 0.03831907 -0.1994527 -0.108891204 0.10751402
0.7476692 -0.10061965 -0.22332208 -0.122408964 -0.24936925 0.4269244 -0.039532628 -0.019386392
-0.29232156 0.2685072 0.15829307 0.16711183 -0.31077927 0.24496925 -0.21596064 -0.25205377
-0.039091732 0.1551042 -0.17680809 0.113704525 -0.12613718 0.44559237 -0.054732192 -0.34509805

fc3.bias f4 [4]
00000000: f302 f5bd 6659 883d 0787 093d 1f30 4c3d
-0.11963453 0.066576764 0.033576038 0.04985058
