checkpoint_critic.pth (torch_old, 542602 bytes, 5 tensors)

fcs1.weight f4 [400, 33]
00000000: 6faf a23c 82dc 70bc b71c 80bc 9dd7 fdbc
00000010: ac1e 473d b22b a5bd c17c 603d 7fd2 2f3c
00000020: ec10 d9bb eb5d 293d 483f 823c 2b20 1d3a
00000030: 8ea7 bf3b a112 e8bb d2f9 46bb 072d 823c
00000040: 776e a93d 9039 92bd bade 96bd 1055 133e
00000050: 39e3 98bb bfab 13bb 2614 2cbb 27d2 5ebb
00000060: bca0 2cbc c0f9 77bb 4116 ecbc 4ffd 79bd
00000070: 42f1 7dba 585e 03bd c04c fe3c c2e0 a33c
00000080: cb87 70bf 9b04 a1b9 7edc 2fbb ae00 d63b
00000090: 210b 7f3c 0aa1 9ebd da8d d03c 7cb5 a1bc
000000a0: dc67 6038 3eb2 c1bc aac2 95bc b3e6 cb3a
000000b0: f8bc 753b 2996 923b 722c 69bb 0afd 02bb
000000c0: 3ef9 faba 18ca 1bbb cecc 9a3c 83c7 37bc
000000d0: 83b6 8abd 3456 88ba 94f7 783b 65fa 34ba
000000e0: 9abf 8dbb 6acd a9bb 76c4 343b 93a2 01bc
000000f0: 4dcc a53d e7e9 acbc 3104 013d 4afa ca3b
00000100: 8243 11bd f169 733f 91e2 553d 87c2 133d
00000110: cf55 173d e167 b4bd 7289 48be ac53 a43e
00000120: f8be e2bc df75 67bc 2472 e5bd 0e72 a4bd
00000130: d4a4 8cbc 9dca 81bd 63ea 3abd adb7 64bd
00000140: cffe 6f3c cfb9 c73c 66ef 813c 3681 92bd
00000150: c5a5 2abe 4c73 b23b 88f9 37bd 183c 34bb
00000160: 95d9 78bd 50fa dc3c cbb4 bf3c 2d67 35bd
00000170: 82aa 8ebc 9f7b a73d 3f99 e4bc 140b 42bc
00000180: 4069 dbbd ba54 b4bc 79a6 fd3d 53da a6bd
00000190: 98bc e33c 6681 d43d bb9d 843c 21cf b7bb
000001a0: c18c c1bd cedd 8fbe 6d06 073d b412 9e3d
000001b0: ea28 143c ba25 39bd 92a9 cd3c 1887 a33c
000001c0: c544 4f3c 4b1e 583d b43a 13bd 8e67 d6bc
000001d0: 033f 643e c33b d2bd 7b80 12be 10d5 b2bc
000001e0: 090e 123d ab1b 74bc bb08 e63c 6d32 063d
000001f0: d8f2 55bd 0388 423d ed07 3c3d 8033 41bd
00000200: fa24 00bd f0de c5bd a04b 883a c741 b5bc
00000210: 4316 ddbd b9a6 de3c 2550 49bd 9df1 26be
00000220: 6d47 43bd 5e69 853e 7b4a 92bd 77c6 303c
00000230: f893 eb3b 9bd1 74bc 8e91 f3bb 71ac d43c
00000240: 96fd 9dbb f311 5d3c ce84 67ba 5b02 2ebd
00000250: a164 413e 923e 823d cdce e3bd e14d 203d
00000260: 148a fb3c 8ca4 323c 9d04 edbb a6fe 01bd
00000270: 6c09 0b3c a57f 6c3c cedf 2b3d e2bd e33c
00000280: 8515 a0bd f424 89bc e998 d6bc 9f2b 2a3d
00000290: 3acd 7f3c 8837 65bd d886 053b eab1 793d
000002a0: f5f0 31be 6c76 34bc ea7c 473e 028d b33d
000002b0: 93fb cebc c8ce 073b 2d0d 49bd aab1 88bc
000002c0: de47 6dbc e3a1 4e3c e25d 1a3d e9de 99bc
000002d0: ede6 49bd 68e6 bbbd 5769 e33c defd bc3d
000002e0: 4c43 033d 0293 95ba 40e4 283d bfcf c13c
000002f0: 7945 df3b 958e 0f3c 7c16 993b c138 97bd
00000300: 91ae 1abc d3a5 713c 9d7a 0abd 3127 273d
00000310: faaf e43c fe06 47bf 2c17 82bc 4fae 7f3b
00000320: c46c 28bc be1b a13e 455d cb3d ef1b f5bc
00000330: 18e7 60be 689e 1abd 67bd 50bd 20cc cf3d
00000340: ffb8 243c 4e9a 243c c1de 1bbd 7cc0 24bc
00000350: 4a2d 0d3d 06d9 2dbd c9f8 e8bc 0eae 00be
00000360: c0d3 2abe 7228 1fbe 7fa4 23bc 8b24 633c
00000370: d8bf 7a3b 8690 fdbb 3d41 cebb 88d6 49bc
00000380: 4718 d33d 89fe 6fbb ab2c d43a 9a5c b6bc
00000390: 0154 76bc 9473 8bbc 5ace 29be d537 303c
000003a0: ddd2 94bd 83c1 4e3c 7c07 d53d 9f9f 2e3d
000003b0: a3ae 9a3e 9ae2 41bd 4f2c 7ebb eb42 82bd
000003c0: ddfa b63c c9ad 033b b331 5fbc 29bb cb3b
000003d0: 56d1 ef3c a55e 2b3d 2c38 84bc 5b86 843d
000003e0: 2483 48be 6119 453e 50e8 a0be fd40 ff3a
000003f0: 3538 c5bc a1c3 aebc 6244 1b3d eca2 ea3c
0.019859044 -0.014701011 -0.015638692 -0.030986601 0.048613235 -0.08064975 0.054806475 0.0107313385
-0.0066243317 0.041349333 0.015899315 0.0005993868 0.0058488315 -0.007082299 -0.0030361307 0.015890611
0.082730226 -0.071398854 -0.073667005 0.14387918 -0.004665759 -0.0022532789 -0.0026257127 -0.0033999772
-0.010536369 -0.0037838072 -0.028819205 -0.06103259 -0.00096871343 -0.032072395 0.031042457 0.020004634
-0.93957204 -0.00030711744 -0.0026834304 0.0065308427 0.015566618 -0.077455595 0.025458265 -0.019739859
5.350249e-05 -0.023644563 -0.0182813 0.0015556425 0.0037496667 0.004473467 -0.003557947 -0.0019987249
-0.0019147766 -0.002377158 0.018896487 -0.011217001 -0.067730926 -0.0010401667 0.0037989365 -0.0006903767
-0.004325819 -0.005181958 0.002758292 -0.007912296 0.08095608 -0.021107627 0.031498138 0.0061943876
-0.03546477 0.9508353 0.052218024 0.036074188 0.036947068 -0.08808876 -0.19583681 0.32095087
-0.027678952 -0.014127224 -0.11203411 -0.08029567 -0.01716844 -0.063374735 -0.045633685 -0.05583923
0.014648153 0.024380593 0.015861224 -0.07153551 -0.16664799 0.0054458734 -0.044915706 -0.002750164
-0.060754377 0.026974827 0.023401638 -0.04428785 -0.017415289 0.08177876 -0.027905105 -0.011843462
-0.10713434 -0.022013057 0.12385268 -0.08147111 0.02779989 0.10376243 0.016188493 -0.0056094085
-0.09450675 -0.2809891 0.032965112 0.07718411 0.009042958 -0.045201994 0.025105271 0.019961879
0.012650673 0.052763265 -0.035944656 -0.026172426 0.22289662 -0.10265305 -0.14306824 -0.021830112
0.035657916 -0.014899175 0.028080335 0.032762934 -0.052233547 0.047492992 0.045905996 -0.047168255
-0.031285264 -0.096616626 0.0010398515 -0.022126092 -0.10795262 0.027179109 -0.049148697 -0.16303106
-0.04767554 0.2605695 -0.07143112 0.010789505 0.00718927 -0.014942552 -0.007433123 0.025961133
-0.0048214896 0.013493049 -0.000883174 -0.042482715 0.18886043 0.063595906 -0.111234285 0.03913677
0.03070549 0.010903489 -0.007233216 -0.031736992 0.008486133 0.01443473 0.041961484 0.027800504
-0.078166045 -0.016741253 -0.02619596 0.041545507 0.015612895 -0.05596116 0.0020374563 0.060960688
-0.17377074 -0.011014562 0.19481245 0.087671295 -0.025266444 0.0020722616 -0.04908483 -0.01668628
-0.0144824665 0.012611839 0.03768719 -0.01878305 -0.049292494 -0.09174806 0.02776019 0.09228109
0.0320466 -0.001141161 0.0412333 0.023658631 0.0068137017 0.008762022 0.00467187 -0.07383872
-0.009441034 0.014749008 -0.03380834 0.04080886 0.027915943 -0.77745044 -0.01588019 0.0039013808
-0.010279838 0.31466478 0.09929899 -0.029920546 -0.21963155 -0.037748724 -0.05096188 0.10146356
0.010053872 0.010046555 -0.03805423 -0.0100556575 0.03446702 -0.042443298 -0.028438943 -0.12566397
-0.16682339 -0.15542772 -0.009987949 0.013863693 0.003826132 -0.007738176 -0.006294398 -0.012319215
0.10307365 -0.003662022 0.0016187628 -0.022260953 -0.0150346765 -0.017022885 -0.16582623 0.010755499
-0.072667815 0.012619379 0.10401818 0.042632695 0.30211362 -0.047335245 -0.0038783734 -0.0636042
0.022336418 0.0020092598 -0.013622689 0.0062173796 0.029274624 0.041838307 -0.016140066 0.06470939
-0.19581276 0.19247963 -0.3142724 0.0019474324 -0.024074653 -0.021333518 0.03790701 0.02864214

fcs1.bias f4 [400]
00000000: 9fb9 483e 36a5 b93d ac04 fc3c 2bc7 983c
00000010: 6137 603d 5cac 463e 3f1c fe3d d30a d4bd
00000020: b58e 253e 69d7 5abd 3e3e af3d 5622 943d
00000030: c84b 15bd 282c 62be c7d0 613d 36ac 233d
00000040: a000 2bbd 71f5 4cbe 7b12 6ebd c3c2 533e
00000050: 00aa c3bd 70e9 9d3d 562a 7d3d 8540 83bd
00000060: 3033 6ebd 2673 ebbd d41c 83bd e3be 81bd
00000070: 752d e0bd f6c0 eabd 8d49 f2bd 95e4 003d
00000080: e5f6 323e 9747 0d3d 8bb5 bc3d d355 10be
00000090: 7c42 d0bb 329a 0ebe bf84 b63d dcd3 c0bd
000000a0: ce0f 36bc dbb4 dfbd f245 963d faf0 83be
000000b0: 07cd 72bc 45b9 09be 1dac 75bd 1b0e 593c
000000c0: 8b38 2f3d 0c9c fcbd 9c2a 82be 808f 2d3d
000000d0: 03f3 243d 959b 35be 0e39 33be 632b 89bd
000000e0: 00dc 8d3d a26c 1abc e4fa 293b 35e8 ac3d
000000f0: 6b83 a73b c640 56bd 8474 68bd 09f4 e7bd
00000100: 30b8 00be 5130 023e 6485 1bbe d261 70be
00000110: 66a9 b2bd cc43 fe3d 7dda 3ebe 8e95 bd3b
00000120: 236a cb3c 3224 2bbe 1aa0 403a 3ef0 c8bd
00000130: 3bd0 4ebd 6824 0ebe 59c8 22be b9db f9bd
00000140: 3f4e 7dbe a992 9f3d 7188 2abe 338e 963d
00000150: 1b07 2fbe e32c 12be 1fd5 ec3d 9ec5 393e
00000160: 75a3 d9bd b773 55be 33fa 043e 94e4 133e
00000170: d55d 7b3d bbec d2bd 0ff4 ccbd e8b5 603d
00000180: db19 0e3e 00cf 32be e8f4 71bd 7285 16be
00000190: c3f0 fabd 9c85 553d b2e7 7c3c 1768 793e
000001a0: 5b7c d83d 942f 073d 8dc0 fe3d 528f 6f3d
000001b0: 69c1 a8bd 2fbe e3bd 15cd 173e 37eb eb3c
000001c0: 4ef9 083e e24c 54be d3f7 dd3c ac6d e3bd
000001d0: e9b6 733b 2e2a 5a3d 0509 c53d d698 603e
000001e0: 3991 c33d 872a 63be 9448 a43d 185b ca3d
000001f0: c6fc 37be 2983 3d3e 671a 323e 37fb ca3d
00000200: 7cc1 86be 2536 203e 4552 e23b b8a9 133c
00000210: eba8 e23d 432c adbd d806 6bbc 2948 5a3c
00000220: dc99 3dbe ecfb 4abe 9ab4 71be dc3c 12be
00000230: a9ba d5bd 8212 9d3d db7d 56be 09bd 183d
00000240: 7588 f2bb 6d31 febd ef85 003e 36ae e83d
00000250: 92bc 7dbe f232 0d3e d6d1 03be d2ef 513d
00000260: 8883 813a cddb 1e3d 5180 37be 4803 f73d
00000270: 5e08 4fbe eeb9 cfbd 5e0f 2cbd 1624 8b3d
00000280: 42d2 733e 2eef e63c b3c9 e13c 141f 2dbe
00000290: f23e 963d 77c0 acbd 0d5f 5fbe a7e1 bbbd
000002a0: 976d 4fbe 0457 b63d c2de d13d 77ed 343d
000002b0: f5de febc 5a78 47be d6c6 a43d 2430 31be
000002c0: 83b0 4bbe 2c56 233d f676 0d3e ffbc 03bd
000002d0: 3fa4 5dbd e031 65be a71e a63d ada9 a53d
000002e0: 0cd7 8ebd c0c1 03be 394d 223d f452 e1bd
000002f0: 651e 3abe f50c 16bd 0b0c c73c ad4f a4bd
00000300: b02e 85bd a06d c0bd 4476 1f3d 86ac 4cbe
00000310: 6174 1ebe 2e2d 5ebe c299 15bd 0bce c23a
00000320: 7e74 f1bd 14c0 0bbe 0616 8fbc 80a4 9f3d
00000330: df41 38bc 5129 37bd 6e3b b9bd dcbd a8bd
00000340: 951b f5bc 9f04 33be 542f dfbd 3145 16be
00000350: 6fc0 21be 52eb ec3d ec70 bbbd 81a7 90bd
00000360: 81d0 bb3d a9f5 c5bd f925 98bd 53cf c83d
00000370: 8d73 0b3d 4af2 85be d30b a23d f380 46be
00000380: de7d 37bd 5a1f 983d 0fdd 7b3e eaf9 fcbd
00000390: 6d02 6abe f499 3cbe 3688 1dbe 9b96 65be
000003a0: c6f9 2bbe f9a5 833b 16c7 ba3d 6c6f a33d
000003b0: 6795 de3d bbb9 19be 04df 02bb 2498 73be
000003c0: b5c6 e53d fed9 1bbd c178 4d3c cece f4bd
000003d0: 9a49 4e3d 14c7 3cbe 67be a8bc 3212 56bd
000003e0: 467d 37bc a1b5 cbbd 2ddc da3d 3962 513d
000003f0: a259 903c 7fa2 c73c dac6 12be e00b 733d
0.19602059 0.090647146 0.030763946 0.018649658 0.054740313 0.19401687 0.12407731 -0.10353627
0.1616772 -0.053428087 0.08556794 0.072331116 -0.036449224 -0.22087157 0.055130746 0.039959155
-0.041748643 -0.20015503 -0.058123093 0.20679764 -0.09553909 0.0771054 0.061807953 -0.064087905
-0.058154285 -0.11496572 -0.06401983 -0.06335237 -0.1094617 -0.11462586 -0.11830435 0.031467993
0.17476995 0.0344921 0.09214314 -0.1409524 -0.006355582 -0.13926008 0.08912038 -0.09415409
-0.011112167 -0.10923167 0.0733756 -0.25769788 -0.01481939 -0.13449581 -0.059978593 0.013247992
0.042778533 -0.12334451 -0.25423133 0.04237318 0.040270817 -0.17735131 -0.17502233 -0.066977285
0.06926727 -0.009425314 0.0025936896 0.084427275 0.005112102 -0.052307867 -0.056751743 -0.11325843
-0.12570262 0.12713744 -0.15187603 -0.23474815 -0.087237164 0.12415275 -0.18638034 0.0057856506
0.024830883 -0.16713026 0.0007348076 -0.098114476 -0.050491553 -0.13881075 -0.15896739 -0.12200112
-0.2473688 0.07791645 -0.16653611 0.07351341 -0.17092554 -0.14274935 0.11564087 0.18141791
-0.1062688 -0.20844923 0.12986068 0.14442664 0.061368782 -0.10299059 -0.10007488 0.05486098
0.1387705 -0.17461777 -0.05907145 -0.14699343 -0.12252953 0.052129373 0.0154361 0.24356113
0.10570594 0.03300436 0.1243907 0.05848629 -0.08240015 -0.11120259 0.14824326 0.028798683
0.13376352 -0.20732453 0.02709571 -0.111049026 0.003718788 0.053262882 0.09620861 0.21933302
0.095491834 -0.22184192 0.08021656 0.09880656 -0.17967519 0.18507065 0.17392884 0.09911197
-0.26319492 0.15645654 0.00690678 0.009012632 0.11067375 -0.08455708 -0.014344893 0.013322868
-0.18515724 -0.19822663 -0.2360405 -0.14281029 -0.10435993 0.07669546 -0.20946448 0.037289653
-0.007401521 -0.12411771 0.12551092 0.11361353 -0.24778965 0.13788965 -0.12873015 0.0512541
0.0009881118 0.038783837 -0.17920043 0.12061173 -0.20218036 -0.10142885 -0.042006843 0.06793992
0.23810676 0.028190222 0.027561998 -0.16906387 0.073362246 -0.08435147 -0.21813603 -0.09173899
-0.20256649 0.08903316 0.10247566 0.044171777 -0.031112174 -0.19479504 0.080457374 -0.1730352
-0.19891553 0.0398771 0.13814911 -0.032162663 -0.054111715 -0.22382307 0.08111315 0.08089004
-0.06974611 -0.12866879 0.039624427 -0.1100215 -0.18175657 -0.03663345 0.024297735 -0.080230094
-0.065030456 -0.09395909 0.038931146 -0.19987687 -0.15474083 -0.21696922 -0.036523588 0.0014862431
-0.11789797 -0.1364749 -0.017466556 0.07795048 -0.011246174 -0.044717137 -0.090445384 -0.08239338
-0.029920379 -0.17482232 -0.10897699 -0.14674832 -0.15796064 0.11568321 -0.091523975 -0.07063199
0.09170628 -0.096659966 -0.07429118 0.09805169 0.034045745 -0.26161414 0.079124115 -0.19385128
-0.04479777 0.07427855 0.24596046 -0.12352355 -0.22852488 -0.18418103 -0.15383992 -0.22420733
-0.167945 0.004017588 0.09120004 0.079802364 0.1086834 -0.15012257 -0.0019969353 -0.23788506
0.11219541 -0.03804969 0.012540997 -0.11953507 0.05036316 -0.18435317 -0.020598603 -0.052263446
-0.011199301 -0.09946752 0.106865264 0.051119063 0.017620865 0.024369476 -0.14333668 0.059337497

fc2.weight f4 [300, 404]
00000000: 10bf 723d 8f80 8abc f850 8b3d 3c79 893d
00000010: e449 94ba a725 74bc a388 66bd 848f 6a3d
00000020: a9ff 4abd 6e0c b23d d496 3f3c e1fa 6e3d
00000030: 0bce 78bd 6be8 c83d 8fbe 51bd 5232 fbbd
00000040: b406 3d3c 3884 953d e51d e23c 5ca4 08bd
00000050: 8d51 23bd 9c55 b73d 452a 953b 4a32 263d
00000060: 6281 ddbd 406c d3bc a391 69bd 5448 bcbc
00000070: a048 2c3c 0709 9cbd 09c7 a5bd 226f 85bd
00000080: 9ff7 a5bd b89f 53bd 3c50 673d b8d1 913d
00000090: 7ec5 4dbe a8f8 56bd 5906 8ebd f3d6 3dbd
000000a0: 8481 a63d 2df0 853d 03f3 c9bd 98cc 623d
000000b0: 0058 fb3d 370a bbbd 8270 8a3d 17bb d2bc
000000c0: b350 1f3e 9b3f a13d 1bf2 153d 96cd 15bc
000000d0: 1dc8 57bd 2cf4 0dbe 6a9d dd3c 2428 26be
000000e0: 6326 593d aa89 19bd 2713 883d 44dc 04bc
000000f0: 5da9 7f3c 83e2 813d c6d1 99bd f463 e43d
00000100: bb6a 873b b8ec 46bd 8e28 8b3d a3b2 b7bc
00000110: a674 bebc a6e4 54bd 6dc7 4abd 702e 60bd
00000120: 8d66 703d 9ca9 70bb f4e8 023e 5e87 16bd
00000130: dcd3 ad3d 9414 98bc 2c93 21bc f913 50bd
00000140: febf a7bd b3c5 85bb 9c40 d1b8 7333 bfbc
00000150: bee5 f7bd 674e 643d 1c20 2f3d 17b5 dfbd
00000160: c343 e6bc 6651 bb3d c51a ab3c 859b 803c
00000170: 305d 6c3d 0c20 8b3c 3219 6fbc c00d df3c
00000180: 8d2e e9bb b9b0 633c 142b 4bbd f594 d53d
00000190: 4d8a 9c3d 10a7 1e3e a935 f3bc b87b e6bc
000001a0: c919 aebc 5420 af3c 5671 d6bb 02d9 9d3d
000001b0: 49c4 683c 926c 27bc 8920 813c 70f0 bcbd
000001c0: 3dea 31bd 188f 12bd 4b00 d2bd b3a5 64bd
000001d0: 20b7 ebbc a6d6 0f3d 4d64 b9bd 075c 57bc
000001e0: b045 5d3d ce54 933c 151f a13d 3fa1 67bd
000001f0: 203e 483d 48ed 03bd 9994 6b3c 2437 b9bd
00000200: befe e7bc 2288 bf3d a9be 98bc 6fa3 523c
00000210: 368a 873d cdcf 743d cab1 473c d90c 323d
00000220: d683 773d 8f56 003d 749e 0dbd 5cf3 eb3d
00000230: c64e 5d3d 94f4 d8bc f581 fabd 7a8b 05be
00000240: 9d5a 2abc b2a0 333d d89a b03d 176b 48bc
00000250: 74b0 79bc a2ee 99bd c66c 0e3d ea09 833b
00000260: 1809 593d 7a95 3fbd a8f2 0abe 7f8f 063d
00000270: 54a8 b0bd 2c89 73bd 7f30 4ebc a2d1 89bc
00000280: 75c3 9ebc a9ee 2e3b 12f0 463c b7a5 873d
00000290: 1182 333c 665e 32bd e5e1 d63b b6f3 02be
000002a0: c1ce 243c a41c 6dbd 5029 99bd 1c31 41bb
000002b0: 04c9 a3bd 0c19 09be 42af 73bc dce1 d3bc
000002c0: 4ab5 8dbd 5748 ea3b 03d5 cebb f7dd 85bd
000002d0: 281a 0b3d 96e4 353c 402f 983c a856 ea39
000002e0: e250 90bd 68c7 483c b858 a83c 61e9 cfbd
000002f0: 2c6f 2e3d 9040 2e3d 8995 bfbd b04b 90bd
00000300: 7e27 cb3b 1c88 29bd add8 073c e5ba 313d
00000310: 1119 8bbb 036a 493d ffce f43c c812 b03d
00000320: d702 bc3c d771 a4bc dc8a 163c 0046 843d
00000330: 2fa5 6cbd bc6e a63c fab3 133d d0b3 983d
00000340: 513f d53c 6d76 6abd 33f3 5f3d 35ec a6bd
00000350: 294b a3bb 0a8f 7cbd e4ec 2cbd b491 03be
00000360: a36c c53c 7de2 94bd ef1b b7bd abd8 913d
00000370: 7951 943d 15ae 0abd a281 80bd a2d3 e43c
00000380: 7ca2 af3c bb54 53bd fb8e 5cbb 2b13 533d
00000390: 085f 963b 6f78 0a3d 20cd 23bc 21ab ca3a
000003a0: 8bf2 0d3d 799a 8e3b 1728 213d 54bb 61bd
000003b0: 1214 ba3d 65a5 68bc 8dbe 66bd 1083 84bb
000003c0: 80b0 963d 46b2 a139 0055 b63d da45 6f3d
000003d0: 5236 9fbc c78f e33d ce82 f43c 6fbc 33bc
000003e0: 34a9 2d3d e7d2 a9bc 07ce 723d 06bf 0f3d
000003f0: e693 1fbd d390 ac3d 4a2c 1c3d 1c33 7ebc
0.059264243 -0.016907005 0.06802553 0.06712577 -0.0011313525 -0.014901555 -0.05628265 0.057265773
-0.049560223 0.08693777 0.011693675 0.058344726 -0.060743373 0.09809955 -0.05120712 -0.12265457
0.011537243 0.07300609 0.027602145 -0.03335987 -0.039872695 0.089518756 0.004552158 0.040575303
-0.108156934 -0.025808454 -0.057023656 -0.022983707 0.010515362 -0.07618909 -0.080946036 -0.065153375
-0.081038706 -0.05166599 0.056473 0.07120079 -0.20094869 -0.05248323 -0.069348045 -0.04634757
0.08130172 0.065399505 -0.09860804 0.055370897 0.12272644 -0.09132808 0.067597404 -0.025723977
0.15558128 0.0787346 0.036607843 -0.009143254 -0.052681077 -0.13862675 0.0270526 -0.1622625
0.053015124 -0.037484802 0.06644278 -0.008109156 0.015604344 0.06342032 -0.07510714 0.11151877
0.0041325963 -0.048565596 0.067948446 -0.022424048 -0.023248982 -0.05197587 -0.049506593 -0.054731786
0.05869155 -0.0036722189 0.12784177 -0.03675019 0.084876746 -0.0185645 -0.009861749 -0.050800297
-0.081909165 -0.0040824055 -9.977931e-05 -0.023339963 -0.12104367 0.055738833 0.04275523 -0.10923212
-0.028108483 0.09146385 0.020886788 0.015699157 0.057706058 0.016983055 -0.014593409 0.027228236
-0.007116145 0.013897114 -0.04960163 0.10428802 0.07643566 0.15493417 -0.029688673 -0.028135166
-0.02125253 0.02137772 -0.0065442724 0.077074066 0.014206954 -0.010218756 0.015762584 -0.09225547
-0.043436278 -0.035780996 -0.10253962 -0.055822086 -0.028773844 0.035116814 -0.09052334 -0.0131445
0.054021537 0.017984774 0.078672566 -0.05655026 0.048887372 -0.03220871 0.01437869 -0.0904372
-0.028319713 0.09352137 -0.018645601 0.012856348 0.066181585 0.059768487 0.012188384 0.043469284
0.060428463 0.03133255 -0.03457494 0.115210265 0.054030202 -0.026483811 -0.122318186 -0.13041487
-0.01039758 0.043854423 0.08623284 -0.012232563 -0.015239824 -0.07516219 0.034771703 0.0039989846
0.052987188 -0.04677341 -0.13569129 0.032851692 -0.08625856 -0.05945699 -0.012584805 -0.016823594
-0.01938031 0.0026692546 0.012142198 0.066234045 0.010956303 -0.043547057 0.0065576904 -0.12788281
0.01005906 -0.057888642 -0.07478583 -0.0029478734 -0.07997325 -0.13388461 -0.014873328 -0.025864534
-0.06919344 0.007149737 -0.006312014 -0.06536477 0.03396049 0.011101862 0.018577218 0.00044696522
-0.07046677 0.012254573 0.020550117 -0.10151935 0.04258649 0.04254204 -0.093546934 -0.07045686
0.006199776 -0.04138957 0.008291406 0.043391127 -0.0042449315 0.049173366 0.02988386 0.08597332
0.022950573 -0.020073814 0.00918838 0.06458664 -0.05777472 0.020316474 0.03606031 0.074561715
0.026031168 -0.057241846 0.054675292 -0.08150522 -0.004983325 -0.06165985 -0.042218104 -0.1284855
0.024099654 -0.07269762 -0.08940875 0.07121404 0.07242102 -0.033857424 -0.062747255 0.027932946
0.021439783 -0.051594477 -0.003365456 0.051531952 0.0045889653 0.03380626 -0.009997636 0.0015462377
0.034655135 0.0043519107 0.039344873 -0.05511029 0.09085859 -0.014199589 -0.056334067 -0.004043944
0.073578835 0.00030841137 0.08902931 0.058416225 -0.019435082 0.11111408 0.029847529 -0.010970219
0.042397693 -0.020730449 0.059278514 0.035094284 -0.038959406 0.084260605 0.038128175 -0.015515115

fc2.bias f4 [300]
00000000: a70e b6bd 392b 0e3c 29f0 4e3e 5c11 3abd
00000010: d5d3 a23d fea6 0b3e 66bc 69bc 9f0d f53b
00000020: 1d18 b8bd 37d3 1e3e c1dd e6bc 27af 0a3e
00000030: d9f1 eebc 0892 fa3d 5b38 01be c3bb 893d
00000040: f109 9e3d b615 e1bd 9ae8 fd3c 82ff 56bd
00000050: dde0 103e 5fa4 343d ea1e eb3c f913 893d
00000060: 1726 273e 1298 033e 991d c3bd 1de3 013e
00000070: 4cb4 393d 4609 89bc 13f2 7bbc 204a 053e
00000080: 3e7a 50bd 1e5e 263d cd7a 4ebc 1208 fc3d
00000090: 8918 aa3d f4cb 123d 939d 293d b243 ac3c
000000a0: 18e1 94bd 7587 00bc 6880 cc3b 7d83 cfbc
000000b0: c7d8 c03d 5a8d c8bc dab6 61bd 4f22 f5bd
000000c0: 21e4 6d3d 247a 583d 3d90 1e3e a157 adbb
000000d0: 4be7 af3d f3da 013e d277 1b3d e820 97bd
000000e0: fd22 fa3d db01 ac3c a62d 1abc 2092 5a3d
000000f0: 7d0e 693c e5e3 54bd 5bf9 093e bc42 c63d
00000100: 39c3 c03d 2702 0dbd adae 4a3d c52e 813d
00000110: 6734 023e 0b4c ad3d b755 a13d 024c 913d
00000120: a138 82bd 44dd b83d 770c f8bc a5a8 c53d
00000130: 3307 15bd fcdf 053e 868f 00be e1c3 413d
00000140: 57e7 75bc f743 c7bd 856b 583d f2be 04be
00000150: 15f4 b63d 6d5c d03d 60b8 c8bd 5d40 e13c
00000160: 030b dcbd 2d2d da3d 501c 053e 0e9b 983c
00000170: 5c62 713d 30db e33c 2b8d 8b3d 8fb0 ddbd
00000180: b20c 9e3d 4e7e 8cbd 326a db3d cc18 923c
00000190: 627f 0e3d 3c3a afbd cb3e 193d 9ef0 48bd
000001a0: a9c2 2b3d 1817 3bbd 64ea 013e 6e41 8d3c
000001b0: 54c4 75bd 6fd7 95bc fa87 073e f185 90bd
000001c0: d902 173e d02c 143e 6493 843d ea54 04be
000001d0: e046 2cbd e9cb a83d 98d0 453e 2a63 aa3d
000001e0: 1bdf 46bc 67ed 89bd 5d59 fbbc 4356 e0bd
000001f0: 2e9c f13d 0fe8 e3bd 3e08 a73c 0bd2 6f3d
00000200: dabe 1e3e fd3d 75bd ab1a 1bbe 5808 f13d
00000210: 33c4 303d 0836 ffbc dcfa bcbd e4c5 a23d
00000220: f0ca 20bd 99bb 073d 97ee d5bc 4c62 c9bc
00000230: 7a3c 00be f716 503d 1570 b6bc 2d48 b33c
00000240: ef48 d43c cced 923d 8222 c7bd 1ab7 8d3d
00000250: efc8 1b3a b192 2f3e 0382 98bc f828 f13d
00000260: 90f9 ca3d 04de 353d 81ec 00be d4c2 833d
00000270: d798 19bd 2731 debc ca2b 163e d653 013e
00000280: e824 0c3e d8b3 cfbc 091e af3d 157e 1d3e
00000290: 44d5 c8bd 4021 9e3d 155f 973d 8bed a53d
000002a0: 1fc7 083e 5640 d13c fe3f 233e d17a f4bd
000002b0: 06f9 0d3c 858c 783d 155a 9d3d 7d12 9f3d
000002c0: f9f7 7cbd 1b83 583c ae74 2c3d bf8c 643d
000002d0: b6be 45bd 0b5e 9abd a51f 033d 243c b93d
000002e0: e68d 82bd 6d93 533d d72a 5f3d 999a 98bd
000002f0: c36d 8cbd ba76 ce3c 4269 f9bc 10bb c3bd
00000300: 2c99 a33d 6f47 ec3d 9a40 093e 6570 d3bb
00000310: 9e7f 45bd 304e 893d f96a 0d3e 6926 a53d
00000320: 62bb 0e3e e504 1e3c bfd2 103e 3fa4 ab3d
00000330: 21e1 2e3d e2ad e33d 426d a63d 41c8 993d
00000340: a6e8 74bd 1011 143e d177 3e3e d352 183e
00000350: 515a 4cbc bcda 18bd 21a4 0bbd 676f 78bd
00000360: 8f44 7b3b 162d c1bc 6206 af3d c61e a8bd
00000370: 838c cb3d 3cf7 cd3b 47ad a7bd ef6b 403d
00000380: 5e54 8fbd 83e4 07be 2bde a43d 0be3 ad3d
00000390: f8f3 473d 5dcc 5ebd 4c99 353d e877 d63d
000003a0: 7aa9 403d 0acb 953d 97ab 8cbd 94b5 c83d
000003b0: 5e50 44bc 8702 dcbd 6960 93bd 8935 a83c
000003c0: 5595 ec3d 6a0e 91bd f550 a9bd 209a a2bd
000003d0: 5b3e b33d 73a9 c03b fbdc da3d 3e4f 413d
000003e0: fd7e e03d 40c1 4bbd 5be3 46bd c5a3 96bd
000003f0: 24ea 003e 634b df3d bc40 dd3d f318 4dbd
-0.088895135 0.008677297 0.20208801 -0.04542671 0.0795056 0.13637921 -0.014266109 0.0074784304
-0.08988974 0.1551026 -0.028181912 0.13543378 -0.029168056 0.122348845 -0.12619154 0.06725266
0.0771674 -0.10990469 0.030994702 -0.052489765 0.14148279 0.04410207 0.028701264 0.066932626
0.16323124 0.12850979 -0.0952713 0.12684293 0.04533796 -0.016728055 -0.015377539 0.13016558
-0.05089783 0.0406171 -0.01260252 0.12306227 0.08305461 0.035839036 0.04141004 0.021028373
-0.07269496 -0.0078447955 0.006240893 -0.025331253 0.09416347 -0.024481464 -0.05510602 -0.119694345
0.05807889 0.052850857 0.1548471 -0.005289987 0.085890375 0.12681179 0.037956066 -0.07379323
0.12213705 0.020996979 -0.0094102975 0.053362012 0.014224646 -0.05197515 0.13474028 0.09680697
0.09412236 -0.03442588 0.04948299 0.06307749 0.12715302 0.0846177 0.07877677 0.070945755
-0.06358457 0.09026578 -0.030279381 0.09651307 -0.03638382 0.13073725 -0.1255475 0.047305945
-0.015008769 -0.0972976 0.052836914 -0.12963465 0.08933274 0.10173879 -0.09800792 0.027496511
-0.10744288 0.10653148 0.12999082 0.018628623 0.058931693 0.027814478 0.06814035 -0.108246915
0.07717265 -0.06860028 0.107136145 0.01783409 0.03478945 -0.08556029 0.0374134 -0.049057595
0.04193369 -0.04567632 0.12687069 0.017243113 -0.060001686 -0.018291203 0.13235465 -0.07056797
0.1474718 0.1447022 0.06473425 -0.12923017 -0.04205978 0.08242018 0.19317853 0.08319695
-0.012138153 -0.06734734 -0.03068226 -0.10953953 0.11797367 -0.11128246 0.020389672 0.058549922
0.15502492 -0.05987357 -0.15146892 0.117691696 0.04315586 -0.031153694 -0.09227535 0.07947901
-0.039256036 0.03313789 -0.026114745 -0.024583004 -0.1252307 0.05080315 -0.022270242 0.021885002
0.025913684 0.071742624 -0.09723379 0.069196895 0.0005942722 0.17145802 -0.018616682 0.11775392
0.099108815 0.044401184 -0.12590219 0.06433645 -0.037499275 -0.027123047 0.14665142 0.12629637
0.13685954 -0.02535431 0.085506506 0.15380128 -0.09806302 0.07721186 0.07391182 0.08101948
0.13357209 0.025543373 0.1594238 -0.11937488 0.008665329 0.060680885 0.076831974 0.07767198
-0.061759923 0.013214852 0.042103462 0.05579829 -0.04827758 -0.075374685 0.0320126 0.09044674
-0.06374721 0.051654268 0.054484215 -0.07451362 -0.06856873 0.025203098 -0.030445699 -0.09557164
0.079881996 0.115370624 0.1340355 -0.0064526075 -0.04821741 0.06704366 0.13810338 0.08063967
0.13938668 0.009644722 0.14142893 0.08380937 0.04269517 0.1111715 0.08126308 0.075088985
-0.059792183 0.14459634 0.18600394 0.14875345 -0.012472705 -0.037317976 -0.034092072 -0.060653117
0.0038340425 -0.023581069 0.08546139 -0.082089946 0.0993891 0.006285576 -0.08187347 0.046977933
-0.06998514 -0.13270764 0.08050188 0.08490571 0.04881665 -0.054394115 0.04433565 0.10472089
0.047036625 0.07314117 -0.06868666 0.09800258 -0.011982052 -0.107426696 -0.07196123 0.02053334
0.1155192 -0.070828274 -0.082673945 -0.07939553 0.08752128 0.005879575 0.1068668 0.047194712
0.10961721 -0.049744844 -0.048556667 -0.07355455 0.12589318 0.10903051 0.10803363 -0.05007262

fc3.weight f4 [1, 300]
00000000: ef15 c6bd 84a7 953e 1e9c 383d a4b9 48be
00000010: 2b88 a03d 7b18 e33c 5cdd d6bd bc05 a63e
00000020: 6447 88be 810f 0f3d d6a8 45be 558d 6f3d
00000030: e09b 4fbe 2ddd 443d b655 2cbe 506e f53d
00000040: eaf2 2a3e 4242 e0bd de70 2c3e 1ebb 923e
00000050: 00e5 543d 03e2 983d 1df7 2b3e 0100 1c3e
00000060: 69c5 573d 60b6 3c3d 6b5b 1dbe 229b b13d
00000070: e88b 5e3d 5d07 963e 8373 bb3e f684 793d
00000080: 933b 19be 5625 893d a044 74be ff41 af3d
00000090: 7dc3 d43d 039e be3d 02e0 033e ce36 98be
000000a0: 2c1f 1bbd f0c1 b1bd 1990 a0be 6345 21be
000000b0: 765c 0b3d 94f0 0ebe 2e42 07be 7553 06be
000000c0: 7b2c 163e ed72 b13e 9430 4c3d e298 15be
000000d0: 09d6 403d 83b2 0d3d 0c80 a73d 18d8 1cbe
000000e0: 77dd 623d 6251 973e ea02 26be 8f49 6d3e
000000f0: 6e19 293e 102a 17be 9a44 aa3d 3a5a c73d
00000100: a2dd ea3c 4c6d 8dbe b6c8 f73d e658 773e
00000110: 05eb 683d 4c1e a73d f6c3 283e 560b 1d3e
00000120: 48f6 16be a71f 0d3e 8c02 12be 7f71 243d
00000130: 48ab 63be cfb0 633d 3543 a7bd 7a61 143e
00000140: fdb6 833e e70d eabd cd88 713d f092 00be
00000150: 9555 ac3d 150b 2e3d 837e 40be 1e0e 413e
00000160: f947 68be 3538 1c3d 42f5 9e3d 1478 003e
00000170: 037f a23d ae76 a23e d0eb 7e3d cad4 30be
00000180: ef1b 8e3e 8f97 58be 95e0 0a3e 5a48 5bbe
00000190: ac9b 2c3e 6273 1fbe 666a 8b3e 61c9 25be
000001a0: b9c2 c53d 36c7 30be 2062 623d d288 453e
000001b0: 6c7f f8bd 5cbc 1cbe cb31 c93c ddb3 3ebe
000001c0: 52be 2a3d e857 933d d7b8 a93d 5861 a8bd
000001d0: 88c1 aabd 78be f13d c5bd 2f3d 3234 c33d
000001e0: e648 cd3e ba1f 16be 2444 03be ad1b a1be
000001f0: 2695 883d 9d43 2fbe 2ee3 8f3e f4ea c33d
00000200: 8948 493d f101 73be 0e53 99bd 0eb0 153e
00000210: 7caf d33d c8cb 1dbe 7e18 e6bd 5177 843e
00000220: 5592 a0bc c57f ed3d e967 10be 9f78 73be
00000230: a24b c1bd 6d90 223e fe8f 65be c471 9b3e
00000240: ea4c 6c3e 3835 d43d b4a2 d8bd e316 503e
00000250: e245 03be 4e3a ce3c bc27 9dbe ad22 f53d
00000260: 1d60 3b3c 2491 403e d445 42be ceb6 bb3c
00000270: dcd8 85be a15f 6fbe 15e8 283d f9e1 123d
00000280: 25af f13c 61fa f03e 8269 3b3d 1171 6b3d
00000290: b61a 14be 65a0 c23d fafe ab3d 6561 953d
000002a0: 04a1 953d 0cf4 933e 9979 c13c fc5b c1bd
000002b0: 34f8 36be 6e35 b83d 1fde 8a3e de52 dc3d
000002c0: 9389 bbbd f1e6 8dbe 03d0 343e a4a4 443e
000002d0: 2e8d 27be 11ea 01be 88d9 6cbe c4ad 1c3e
000002e0: e36e b3be d664 943e 870a bc3d 75ff f6bd
000002f0: 062d f4bd 75a7 803e c240 39be bccd 00be
00000300: 4e80 923d 9bd1 303e ad68 d63c ece6 66be
00000310: 0553 87be 4a8d 873e 71aa 3c3d 7349 c13e
00000320: 867c 133d 6ea3 24be 3e6f 823d e823 e13d
00000330: 81e7 0e3e 5231 593d 5b92 fa3d bded 453d
00000340: 9d71 99bd 3002 2b3d 96a3 3e3d b394 273d
00000350: 4ae8 07be 0e06 dabd dd8d 6dbe 8657 86be
00000360: e5ae 3fbe 6732 17be ea78 903e ec34 06be
00000370: c480 923d 8f12 ce3d 41a2 4cbe b5fc b23d
00000380: 6d1f 13be 185f 90bd 9692 6b3d 87fc 833d
00000390: 8848 f13d 7e52 c7be 2711 003e c6e4 d33d
000003a0: 554b 623d 00a6 a13e 04f4 bfbd 5782 a73d
000003b0: e7cc d5bd cf60 aabd 81b6 f9bd 0ff7 a93e
000003c0: 3f35 803d 45bb 29be 6a57 e4bd f672 fcbd
000003d0: 7ed2 083e 485c e3bd 9833 b33d 4e87 493e
000003e0: a952 c43d 01c6 aabd 31d7 8bbe a862 ebbd
000003f0: a79a 213d 1226 983d e596 d53d 948e 99be
-0.09672152 0.29229367 0.04507076 -0.19602066 0.07838472 0.027721634 -0.1049144 0.3242625
-0.26616967 0.034926895 -0.19302687 0.058484394 -0.20274305 0.048062492 -0.16829571 0.11983931
0.16694227 -0.10950138 0.1683993 0.28658384 0.051976204 0.07464983 0.16793485 0.15234376
0.0526785 0.046072364 -0.15366904 0.08672167 0.054332644 0.29302493 0.36611566 0.060917817
-0.14964132 0.066965744 -0.23854303 0.0855751 0.10388849 0.09307482 0.12878421 -0.29729313
-0.037871525 -0.08679569 -0.31359938 -0.15749125 0.034023724 -0.13958961 -0.1320884 -0.13117774
0.14665405 0.34657994 0.049851015 -0.14609101 0.04707912 0.03459407 0.0817872 -0.15316808
0.055386987 0.29554278 -0.16212049 0.23172592 0.16513607 -0.1476214 0.08313866 0.09734006
0.028670136 -0.2762245 0.120988294 0.24155006 0.056864757 0.081600755 0.16481003 0.15336356
-0.14742386 0.13781606 -0.14258784 0.0401473 -0.22233307 0.05558854 -0.081671156 0.1449031
0.25725546 -0.11428433 0.058968354 -0.12556052 0.08414761 0.042491037 -0.1879826 0.18853042
-0.22683705 0.03813954 0.07761623 0.12545806 0.07934382 0.3173117 0.062236607 -0.17268673
0.27755687 -0.21151565 0.13562234 -0.21414319 0.16856259 -0.15571359 0.27229613 -0.16190101
0.09656281 -0.17263493 0.05526936 0.19290474 -0.12133679 -0.15306228 0.024559876 -0.186233
0.04168541 0.07194501 0.082872085 -0.08221692 -0.083376944 0.11803907 0.042905588 0.0953144
0.4009468 -0.1466054 -0.12818962 -0.31466427 0.06669073 -0.17115636 0.28103012 0.09566298
0.04914144 -0.2373121 -0.074865445 0.14617941 0.10336205 -0.15409768 -0.1123514 0.2587228
-0.019601027 0.11596636 -0.14102139 -0.23776482 -0.09438254 0.15875407 -0.2241821 0.30360234
0.23076215 0.10361713 -0.10577908 0.2032123 -0.12819627 0.025174286 -0.30694377 0.119695045
0.011436489 0.18805367 -0.1897195 0.022914317 -0.26142013 -0.23376323 0.041236956 0.035860036
0.02950246 0.47066024 0.045754917 0.057480875 -0.14463314 0.09503249 0.08398242 0.07293967
0.07306102 0.2889713 0.023617553 -0.09441373 -0.1786812 0.08994566 0.2712259 0.10757993
-0.091570996 -0.27715257 0.17657475 0.1920343 -0.1636245 -0.12686945 -0.23129857 0.15300661
-0.35045537 0.28983182 0.091816954 -0.12060443 -0.1192265 0.2512776 -0.1809111 -0.12578481
0.071533784 0.17267458 0.02617296 -0.22549027 -0.26430526 0.26474983 0.046060983 0.3775135
0.036007427 -0.16077968 0.06368874 0.10993177 0.13955499 0.05302555 0.12234946 0.048322428
-0.07492373 0.041750133 0.046542726 0.040913295 -0.13272205 -0.10645686 -0.23198648 -0.2623865
-0.1871906 -0.1476532 0.2821725 -0.13106126 0.07153466 0.100621335 -0.1998377 0.08739606
-0.14367457 -0.07049388 0.057512842 0.0644465 0.11781412 -0.38930124 0.12506543 0.103463694
0.055247623 0.3157196 -0.09372714 0.08179157 -0.10439473 -0.08319246 -0.12193013 0.33196303
0.06260156 -0.16575344 -0.111494854 -0.123266146 0.13361546 -0.111015856 0.08750075 0.19680521
0.09586079 -0.083385475 -0.27312616 -0.114934266 0.03945413 0.07429136 0.104291715 -0.2999159
